data.pth (torch, 5247 bytes, 6 tensors)

l1.weight f4 [8, 59]
0	0x3ef11659	0.47087362
1	0x3e4010df	0.18756436
2	0xbee43c21	-0.44577125
3	0xbf24f946	-0.6444286
4	0x3ee1db31	0.44112542
5	0xbe619d5c	-0.22032684
6	0x3f17a4a5	0.592356
7	0xbe414706	-0.1887475
8	0xbe9e2bf6	-0.30892915
9	0xbe9d47e3	-0.30718908
10	0xbe87a9e0	-0.26496792
11	0x3f125022	0.5715352
12	0xbe993e32	-0.29930264
13	0x3e110d3c	0.14165205
14	0xbe97af29	-0.29625824
15	0x3ea8e3ab	0.32986197
16	0xbe19988f	-0.14999603
17	0x3ed4bafa	0.41548902
18	0x3f243ccd	0.64155275
19	0x3ebd1cb3	0.36935958
20	0x3f279016	0.6545423
21	0x3e5d7bf3	0.21629314
22	0x3f23c479	0.6397167
23	0x3f2ddecf	0.67918104
24	0x3f0574b7	0.5213122
25	0xbea2bb86	-0.31783694
26	0xbd884c51	-0.06655181
27	0x3f16ba09	0.5887762
28	0x3e564fbb	0.20928852
29	0x3ea9a165	0.33130947
30	0xbcef5e4c	-0.029219769
31	0x3e9d249d	0.30691996
32	0xbec23f9d	-0.37939158
33	0x3e936bc5	0.2879316
34	0xbee12ed0	-0.43981028
35	0xbd4a1c32	-0.049343295
36	0xbe0bdaa5	-0.13657625
37	0xbf078481	-0.5293656
38	0x3ee4cd47	0.44687864
39	0xbede9a6b	-0.43477187
40	0xbe50760a	-0.20357528
41	0xbe51200b	-0.2042238
42	0x3e96e845	0.29474083
43	0x3f5e86d1	0.86924464
44	0xbe992be3	-0.29916295
45	0x3e685784	0.22689635
46	0xbf07b2cb	-0.5300719
47	0x3dd33867	0.10313492
48	0x3efc17fb	0.49237046
49	0x3e9e496b	0.30915388
50	0x3f139e9e	0.57663906
51	0x3e3a04cc	0.18165892
52	0xbe63b824	-0.22238213
53	0x3eede261	0.46461776
54	0xbf3ca422	-0.73687947
55	0xbd8e0194	-0.06933895
56	0xbcadfaa4	-0.021237679
57	0xbeffe2de	-0.49977773
58	0xbed69891	-0.41913274
59	0x3ec31bd7	0.38107178
60	0x3f2ed7a8	0.68297815
61	0x3ee1bec3	0.44090852
62	0x3e1f81bb	0.15576832
63	0xbe83d6b3	-0.2574974
64	0xbed01e7c	-0.40648258
65	0xbda1750f	-0.07883655
66	0x3db891cb	0.09012183
67	0xbdf8c621	-0.12147165
68	0xbcee8dd4	-0.029120363
69	0x3c6686d4	0.0140702315
70	0xbe7cba62	-0.24680474
71	0x3f125303	0.57157916
72	0x3ed75fe0	0.42065334
73	0x3f28aaad	0.6588543
74	0x3f1f28c4	0.6217158
75	0x3ef0c4e9	0.4702523
76	0xbde6f944	-0.112780124
77	0x3dc147e5	0.09437541
78	0xbe28b567	-0.1647545
79	0xbeb81b4e	-0.35958332
80	0x3eb9f284	0.36317837
81	0xbeb81d00	-0.35959625
82	0xbeb81eb4	-0.35960925
83	0x3db5b80b	0.08872994
84	0x3ec812a6	0.39076728
85	0x3e949bb0	0.2902503
86	0x3e1c7071	0.15277268
87	0x3f14fe4d	0.5820053
88	0x3e1d32fc	0.1535148
89	0x3f160f9a	0.58617556
90	0xbe378ff7	-0.17926012
91	0x3f3b95d9	0.73275524
92	0x3e865a5c	0.26240814
93	0x3eab73c5	0.33486763
94	0x3f379d64	0.71724534
95	0x3ebe0a6f	0.37117335
96	0x3f1452d9	0.57938915
97	0x3e115fb3	0.14196663
98	0x3d3af118	0.04564008
99	0xbd1c3a51	-0.038141552
100	0x3e09d954	0.1346181
101	0x3d4d1984	0.05007316
102	0xbf3e12cf	-0.7424745
103	0x3edc8b91	0.4307523
104	0x3f1c71aa	0.6111094
105	0x3ef276eb	0.47356352
106	0x3f3ed77e	0.74547565
107	0x3f30dffd	0.6909178
108	0x3ef85f3c	0.48510158
109	0xbe841e90	-0.25804567
110	0x3ee84cbe	0.4537105
111	0x3eddf2ef	0.43349406
112	0xbe096f24	-0.13421303
113	0x3c54be40	0.012984812
114	0x3da50de5	0.08059291
115	0xbd2b5efe	-0.04183864
116	0x3f1dadd5	0.6159337
117	0x3f166874	0.5875313
118	0x3e22f78a	0.15914741
119	0xbe6b291d	-0.22964902
120	0x3ea50498	0.32230067
121	0x3ecf7971	0.4052234
122	0x3eeddbb4	0.46456683
123	0x3df244c0	0.11829519
124	0x3f61e7f0	0.88244534
125	0x3ddf8846	0.10914664
126	0x3e8ee317	0.2790763
127	0x3e4204e4	0.18947178
128	0x3ea2a5fe	0.31767267
129	0x3ec0266b	0.3752931
130	0x3ef88300	0.48537445
131	0xbda45225	-0.0802348
132	0x3f29a953	0.66273993
133	0xbe8c6d9b	-0.27427372
134	0x3f12600d	0.5717781
135	0x3e963a5d	0.29341403
136	0x3f3a3545	0.7273753
137	0xbe82c6fc	-0.25542438
138	0x3ed10d0c	0.40830266
139	0x3e35b8e5	0.17746313
140	0x3eaecb63	0.34139547
141	0x3f0cece3	0.5504896
142	0x3f446b23	0.7672598
143	0x3f0259e2	0.509184
144	0x3eb9955f	0.36246774
145	0xbeafcc46	-0.34335536
146	0xbeccf8b7	-0.40033504
147	0xbeb22d61	-0.34800246
148	0xbf0618d8	-0.5238166
149	0x3f083cd6	0.5321783
150	0x3f2ee32a	0.68315375
151	0x3e9f3c8e	0.31100887
152	0x3e8bb831	0.27288964
153	0xbe2b38f6	-0.16720948
154	0x3ed8780b	0.42279086
155	0x3e225d13	0.15855817
156	0xbe9ec40d	-0.3100895
157	0x3e846c8b	0.25864062
158	0x3e84e7d9	0.25958136
159	0x3e593595	0.21211846
160	0x3f349b9a	0.7054993
161	0xbf083690	-0.53208256
162	0x3f01cfb7	0.5070757
163	0xbeb60a2e	-0.3555464
164	0x3f0fae88	0.5612569
165	0xbe0a5086	-0.1350728
166	0xbe361394	-0.17780906
167	0x3cd4cf1d	0.025977666
168	0x3eb71942	0.35761458
169	0xbed02b85	-0.40658203
170	0x3ee3a845	0.44464317
171	0xbec7898f	-0.38972136
172	0xbe8c4c15	-0.27401796
173	0x3db5ec8c	0.08883008
174	0x3e9a948d	0.3019146
175	0x3df58f24	0.119901925
176	0x3e9d43e4	0.3071586
177	0x3ddb951e	0.10721801
178	0xbc6f4e29	-0.014606037
179	0x3eba942e	0.36441177
180	0x3f219623	0.63119715
181	0x3e9efbc3	0.31051454
182	0x3f48167e	0.7815932
183	0xbf42e13f	-0.7612495
184	0x3f0e545a	0.5559746
185	0x3eb8a64f	0.36064383
186	0x3f27608f	0.6538171
187	0x3f10b45d	0.5652521
188	0x3e8e676c	0.2781328
189	0xbef5cda4	-0.48008454
190	0x3f2233f2	0.6336051
191	0xbec7224d	-0.38893357
192	0x3dd3d25a	0.10342856
193	0xbeaa5d78	-0.33274436
194	0x3ecc61db	0.39918408
195	0xbf428463	-0.75983256
196	0x3ee4e7dd	0.44708148
197	0x3f1895a3	0.5960333
198	0x3db6859d	0.089122035
199	0x3ee5c676	0.44877976
200	0x3f0faf84	0.5612719
201	0x3cdf20a1	0.027237238
202	0x3e3a640c	0.18202227
203	0x3eed7f4f	0.4638619
204	0x3f1242eb	0.5713336
205	0x3e3b4102	0.18286517
206	0x3e819e1d	0.25315943
207	0xbd4a81fa	-0.04944036
208	0xbeebcae6	-0.46053237
209	0xbeaa2409	-0.33230618
210	0xbdd2cf2f	-0.102934234
211	0x3f1b3acd	0.606366
212	0x3ed12e78	0.40855765
213	0xbe6b72f5	-0.22993071
214	0x3ea2368e	0.31682247
215	0x3ea7bd89	0.3276179
216	0x3f3b9534	0.7327454
217	0x3f1794df	0.59211534
218	0x3f06d036	0.52661455
219	0xbf03ab20	-0.5143299
220	0x3ef4925e	0.4776792
221	0xbe73e66f	-0.23818372
222	0x3de803b0	0.11328828
223	0x3ea0aec5	0.3138334
224	0x3edbf022	0.42956644
225	0xbe3b6e2d	-0.18303747
226	0x3e44b1b7	0.19208418
227	0x3ec9aec8	0.3939116
228	0x3f11a478	0.56891584
229	0xbec7885a	-0.38971215
230	0x3ecf53cd	0.40493622
231	0x3ead065c	0.33793914
232	0x3ed26aea	0.41097194
233	0x3f09c32d	0.5381344
234	0x3ec721bd	0.38892928
235	0x3ee2e524	0.44315445
236	0xbe280ef3	-0.16411953
237	0xbe8cd438	-0.2750566
238	0x3e94fe4d	0.29100266
239	0x3e5b006b	0.21386878
240	0x3ebd0a2b	0.3692182
241	0x3c3610a1	0.011112363
242	0x3f4915e5	0.78549033
243	0x3d2e145e	0.042499892
244	0x3c18cc11	0.009325997
245	0xba3f4e54	-0.00072977436
246	0x3deba8d2	0.11506809
247	0x3ea81edb	0.3283604
248	0x3e26c83b	0.1628732
249	0x3dd0d20d	0.10196314
250	0xbe2172cf	-0.15766452
251	0xbe61737e	-0.22016713
252	0x3e2da9ae	0.16959259
253	0x3f02650c	0.50935435
254	0x3f57aacc	0.8424499
255	0xbe837f1e	-0.2568292

l1.bias f4 [8]
0	0x3f7bc7d7	0.98351806
1	0x3eb819c9	0.35957173
2	0x3f6e94f4	0.93196034
3	0x3f42e31b	0.76127785
4	0x3f1f5e50	0.62253284
5	0x3f1f71b1	0.62282854
6	0x3ef84307	0.48488638
7	0x3f0e6136	0.5561708

l2.weight f4 [8, 8]
0	0xbebabecd	-0.36473694
1	0xbd527903	-0.051384937
2	0x3dd5fc39	0.10448498
3	0x3e72b7d8	0.23702943
4	0x3e291d09	0.16514982
5	0xbe2a86e0	-0.16653013
6	0xbdfcc008	-0.123413146
7	0xbdd946e4	-0.106092244
8	0x3f7e255b	0.9927575
9	0xbf61ccc6	-0.88203084
10	0xbdcb3a2c	-0.09923205
11	0x3f83a873	1.0285782
12	0x3f6ac845	0.9171184
13	0x3f0dc233	0.5537445
14	0x3f3ce55c	0.73787475
15	0xbf88583f	-1.065193
16	0x3ed3aa41	0.4134083
17	0x3fa4a077	1.286147
18	0xbf3ca6f4	-0.7369225
19	0x3faa30b6	1.3296115
20	0xbfa751fc	-1.3071895
21	0xbe2135e6	-0.15743217
22	0x3f6cc965	0.92494804
23	0x3fb53d1a	1.4159272
24	0x3f959f22	1.1689188
25	0x3d8e86c0	0.06959295
26	0x3f8bcc5a	1.0921738
27	0xbecd799c	-0.40131843
28	0x3f8c29a5	1.0950209
29	0x3db73fe5	0.08947734
30	0xbf88e121	-1.0693704
31	0x3eb413ad	0.3517126
32	0x3f46986f	0.77576345
33	0xbf857445	-1.0426108
34	0x3eee6f3b	0.46569237
35	0x3f676937	0.9039492
36	0x3f5828e7	0.8443741
37	0x3eb0bfa5	0.34521213
38	0x3f972992	1.1809561
39	0xbf8cd68d	-1.1002976
40	0xbfd7a86d	-1.6848274
41	0x3f0ddd26	0.5541557
42	0x3f64ef4c	0.8942764
43	0x3f6d1278	0.92606306
44	0x3f075d7c	0.5287702
45	0x3f9d712f	1.2300166
46	0x3cb0291d	0.02150398
47	0xbec95ab2	-0.39327008
48	0x3f63fc17	0.89056534
49	0x3c9a18ce	0.018810656
50	0x3f661b07	0.8988499
51	0xbeecc56f	-0.4624438
52	0x3f572bb1	0.8405104
53	0xbf5fcad9	-0.87418896
54	0xbf3a096f	-0.72670645
55	0x3ed2a3a4	0.41140473
56	0xbe342a32	-0.17594221
57	0xbe98128d	-0.29701653
58	0xbdd0c3e3	-0.101936124
59	0x3e454376	0.19264016
60	0xbe5105b2	-0.20412329
61	0xbdd8238f	-0.10553657
62	0x3dc58876	0.096451685
63	0x3d5dd466	0.054157637

l2.bias f4 [8]
0	0xbeadea9b	-0.33968052
1	0x3eba0b1d	0.36336604
2	0x3f49847e	0.7871779
3	0x3f4beb2f	0.79655737
4	0x3e4231f4	0.18964368
5	0x3efa1d59	0.48850515
6	0x3e8c78c8	0.274359
7	0xbeb01c20	-0.34396458

l3.weight f4 [8, 8]
0	0xbebe4f1c	-0.3716973
1	0xbf273e67	-0.65329593
2	0xbf9f3e68	-1.244092
3	0x3ecaf6d3	0.39641437
4	0xbee4217c	-0.44556797
5	0x3f605d9d	0.8764284
6	0xbef19136	-0.471811
7	0x3e4dabd5	0.2008508
8	0xbde760de	-0.11297773
9	0xbf89b526	-1.0758407
10	0x3f45b9f0	0.77236843
11	0xbf873599	-1.0563232
12	0xbf821439	-1.0162421
13	0xbf947ef5	-1.1601244
14	0xbfa8f80d	-1.3200699
15	0x3e8cb425	0.2748119
16	0xbe1cfadc	-0.1533007
17	0xbead02ce	-0.33791202
18	0xbfd06eca	-1.628381
19	0x3f7c5bdb	0.9857766
20	0xbe91071a	-0.2832573
21	0xbf3954db	-0.72395104
22	0x3f61ba1d	0.8817461
23	0x3de2d3d6	0.11075561
24	0x3d87b779	0.066267915
25	0x3f0fa09c	0.56104445
26	0xbf8dddcb	-1.1083311
27	0x3f04712a	0.51735175
28	0x3f2eb295	0.68241245
29	0xbe51bebd	-0.20482917
30	0xbf33e5c8	-0.70272493
31	0x3c32e855	0.01091965
32	0x3e44bb49	0.19212069
33	0x3ea2bd73	0.31785163
34	0x3e087a0a	0.13327804
35	0xbf769eef	-0.96336263
36	0x3e9ec6fe	0.31011194
37	0xbf565f5e	-0.8373927
38	0xbf862889	-1.048112
39	0xbe880d5f	-0.265727
40	0x3e255dd8	0.1614908
41	0xbf0c05e9	-0.5469652
42	0x3e91693d	0.28400603
43	0xbed3aebf	-0.41344258
44	0xbf195991	-0.5990229
45	0x3f331e87	0.69968456
46	0xbfa90016	-1.3203151
47	0xbe8e1d33	-0.27756652
48	0xbde1544d	-0.11002407
49	0x3e1085c5	0.14113529
50	0xbf40bb6d	-0.7528599
51	0xbf8cdffa	-1.1005852
52	0x3f0c8be4	0.54900956
53	0x3f517dec	0.81832767
54	0xbfe53eca	-1.7909787
55	0xbde1866f	-0.11011969
56	0xbbffb1b1	-0.007803165
57	0xbf87961e	-1.0592687
58	0x3e44edd2	0.19231346
59	0x3ee0b8f0	0.43891096
60	0xbf9bbc5b	-1.2166857
61	0xbf914bdd	-1.1351277
62	0x3f358797	0.7091002
63	0x3e86ea7c	0.26350772

l3.bias f4 [8]
0	0x3c918bed	0.017766917
1	0x3e99d5b1	0.30045846
2	0x3e6a373b	0.22872631
3	0xbe7d80cd	-0.24756165
4	0xbe826b24	-0.25472367
5	0x3e88db23	0.26729688
6	0xbe03e874	-0.12881643
7	0x3f0366c2	0.5132867
